Classification/Methods/Hog_LinearLayer/linearHOG.pth (torch, 415783 bytes, 1 tensors)

l1.weight f4 [1, 103680]
0	0xbb49a05d	-0.003076575
1	0x3b6e0682	0.0036319797
2	0x3a5c31a4	0.0008399731
3	0xbb0477c8	-0.0020212997
4	0xba783ba3	-0.0009469336
5	0xbaf62c2c	-0.0018781475
6	0xb9a8ff41	-0.00032233636
7	0x3a62684d	0.0008636758
8	0xbb845e3a	-0.004039553
9	0xbb94297e	-0.004521548
10	0xba2fa29e	-0.0006699952
11	0x3b021977	0.0019851604
12	0x3b55dc27	0.0032632442
13	0xbbc54c98	-0.0060210936
14	0x3b131565	0.0022443172
15	0xb9fc8efa	-0.0004817171
16	0xbb433d36	-0.0029791123
17	0x3b8ebc8d	0.004355973
18	0xbbb88513	-0.005631098
19	0x3b961669	0.004580308
20	0x3a5696c3	0.00081859174
21	0x3b81a9c9	0.0039570075
22	0x3ba0cbe4	0.004907118
23	0xba85ad90	-0.001019882
24	0xbba140ed	-0.00492107
25	0x3aafe739	0.001342035
26	0xbb1a23cb	-0.002351987
27	0x38451325	4.698629e-05
28	0xbb65065e	-0.0034946422
29	0x3a7e0c1f	0.0009691137
30	0x39b8c0c7	0.00035238845
31	0x3be4b074	0.0069790427
32	0x3b4c3820	0.0031161383
33	0x3b0679e9	0.0020519441
34	0xbac0512f	-0.0014672632
35	0xb866a56a	-5.4990327e-05
36	0xbb91286a	-0.0044298666
37	0xba21985c	-0.0006164366
38	0xb9c7850e	-0.0003805537
39	0x39a76258	0.00031925994
40	0xbb6f626d	-0.0036527172
41	0xbb2bcb40	-0.0026213676
42	0xbb27b4a8	-0.0025589857
43	0x3ad335d9	0.001611407
44	0x39d6db5f	0.00040980705
45	0x3acce372	0.0015631749
46	0x3ad28826	0.0016062304
47	0xb841391a	-4.6067966e-05
48	0xb96d7300	-0.00022644922
49	0xb999c343	-0.00029327915
50	0x3aad326e	0.0013213882
51	0xbb8cc748	-0.004296217
52	0xbb5eb897	-0.0033984536
53	0x3bceb394	0.0063080285
54	0xbaf9ba6d	-0.0019052752
55	0xbb93469b	-0.004494501
56	0x3aac571e	0.0013148522
57	0x3b1f8ac1	0.0024344178
58	0x3b2de555	0.0026534398
59	0x3b737c73	0.0037153035
60	0x3ad560fc	0.0016279514
61	0xbb219b49	-0.0024659208
62	0x3a876174	0.0010328726
63	0x38d88177	0.00010323797
64	0xbb8559a4	-0.004069524
65	0x3ae27fa6	0.0017280474
66	0xbb01db35	-0.0019814495
67	0x3b3ce564	0.002882325
68	0x3aea0820	0.0017855205
69	0x3b0180a9	0.0019760525
70	0xbb85b39a	-0.004080248
71	0xb9100b32	-0.00013737081
72	0x3b7fa846	0.003901021
73	0xba5146b1	-0.0007983251
74	0xba276d63	-0.00063868443
75	0x3a8ca6cb	0.001073086
76	0x3afbcbbf	0.0019210501
77	0x3ab145e8	0.0013524862
78	0xbb858da3	-0.0040757223
79	0xbbb14f27	-0.005411047
80	0x3b6e24b8	0.0036337804
81	0x3b20c661	0.0024532306
82	0x3b9ea5e2	0.004841552
83	0xbaf73550	-0.0018860493
84	0x3ab85218	0.0014062552
85	0x3b85d961	0.0040847515
86	0x3b862fb1	0.0040950407
87	0xbbb42e2b	-0.0054986677
88	0xba795e48	-0.0009512645
89	0xbb02e820	-0.0019974783
90	0x3b3b6d95	0.0028599252
91	0x3a0f2d21	0.0005461742
92	0x3aa67bff	0.0012701749
93	0xba862b72	-0.0010236336
94	0x3a0e9b6e	0.0005440031
95	0x3a137240	0.00056246296
96	0xba9865c9	-0.0011627014
97	0xbae9d15e	-0.0017838886
98	0x3b10a5fc	0.002207159
99	0x3baa233d	0.005192189
100	0x3bd68aef	0.006547324
101	0x39ae9488	0.0003329853
102	0x39b515aa	0.0003453915
103	0x3b283a1f	0.0025669408
104	0x3b7a1e85	0.0038165164
105	0x3b539b36	0.0032288558
106	0x3b028b74	0.0019919546
107	0x3c0bd188	0.008533843
108	0x3acb6a2b	0.0015519311
109	0x3b397552	0.0028298688
110	0x3aeefc06	0.0018233068
111	0x386cce5d	5.6458975e-05
112	0x3b9031db	0.0044004745
113	0xbac710b7	-0.0015187477
114	0xbb0c7718	-0.002143329
115	0xb953bf98	-0.00020193902
116	0x3b6f54e8	0.0036519114
117	0xba8d7483	-0.001079217
118	0x3b9e0f99	0.0048236367
119	0x3b890fe8	0.0041828044
120	0x3b8c1b18	0.0042756908
121	0xbb672d61	-0.003527485
122	0x3acbfcf8	0.0015563061
123	0x3a8b0e85	0.0010609186
124	0x3a4bab69	0.00077693776
125	0xbc3062f1	-0.010765777
126	0x3bc35bcb	0.0059618703
127	0x3b9394fd	0.004503845
128	0xbb517643	-0.0031961359
129	0xba9bdeb9	-0.0011891938
130	0x3af1e614	0.001845541
131	0x3b916657	0.0044372487
132	0xba4f7f1f	-0.0007915366
133	0xbb461172	-0.00302228
134	0x3b015447	0.001973407
135	0xbbb2573a	-0.005442527
136	0x3a531530	0.00080521684
137	0x3c27e628	0.010247745
138	0x3b9bb85c	0.004752202
139	0x3ba92796	0.0051621897
140	0x3adb22b0	0.0016718712
141	0x3bce8df1	0.006303542
142	0x3bdd54ee	0.006754509
143	0xbb06cbd4	-0.0020568268
144	0x3b2f9bbc	0.0026795706
145	0x3bdf97c2	0.006823511
146	0x3b7e47ee	0.0038800198
147	0x3bc7fdda	0.0061032595
148	0xbb389bf0	-0.0028169118
149	0x3b2e6f08	0.0026616473
150	0x3b2b3029	0.0026121235
151	0xbb0495b4	-0.0020230832
152	0xbbd84a27	-0.0066006365
153	0xbb044ea5	-0.0020188477
154	0xbaffc0b8	-0.0019512391
155	0x3b1d39cf	0.0023990755
156	0xb9a5221a	-0.0003149666
157	0xbbcb00fa	-0.006195185
158	0xb98d6387	-0.0002696777
159	0xbb35e072	-0.0027752188
160	0x3bf75aee	0.0075486815
161	0xb99f3081	-0.00030362981
162	0xbbb9acc8	-0.005666349
163	0x3bbf3e3e	0.0058362773
164	0x3bcce50c	0.0062528905
165	0x3bcdab5a	0.00627653
166	0x3c18590e	0.009298576
167	0xbb7344f1	-0.003711995
168	0x3b49c663	0.0030788414
169	0x3b7b9c1c	0.003839261
170	0x3b1bf3d3	0.0023796454
171	0x39d9f4cd	0.00041571856
172	0xbb9a1ff6	-0.004703517
173	0x39bdc3d9	0.00036194807
174	0x3aa03fbc	0.0012226026
175	0x3bf40351	0.0074466844
176	0xb98d0a1b	-0.00026901145
177	0xbb07a918	-0.0020700153
178	0x3aa1130d	0.0012289003
179	0x3a431719	0.00074421015
180	0x3ba78bfe	0.005113124
181	0xba8e47a6	-0.0010855093
182	0xb9fc0270	-0.00048067002
183	0x3afa84a5	0.0019113017
184	0x3a473472	0.00075990625
185	0x3ada422b	0.00166518
186	0xbb8aaefd	-0.004232286
187	0x3baedf8b	0.005336707
188	0xbb323661	-0.0027193057
189	0xba308d59	-0.00067349296
190	0x3aa2bd30	0.0012416001
191	0x3becdb9c	0.007228328
192	0x3bc0d153	0.0058843284
193	0x3a1622d3	0.0005727235
194	0x3a93d463	0.0011278506
195	0x3b7476ab	0.0037302177
196	0x3b4f4fa7	0.003163317
197	0x3ae4ef83	0.00174664
198	0x3bade048	0.0053062774
199	0x3ae0a7fc	0.0017139907
200	0xba5ff1d4	-0.000854281
201	0x3b4b1c95	0.0030992378
202	0x3bddd811	0.006770142
203	0x39b2a3e1	0.00034072905
204	0xba948da5	-0.0011333717
205	0x3ba4a12d	0.0050240965
206	0x3ace9591	0.0015761127
207	0xbaf941e1	-0.0019016826
208	0xbc3e10e4	-0.011600707
209	0xb99c1e24	-0.00029777095
210	0xbb0e1e07	-0.0021685378
211	0x3c002965	0.007822369
212	0x3c1e81b1	0.0096744755
213	0x3b46dc2b	0.0030343633
214	0xbbbb3b5d	-0.0057138638
215	0xbb98e4ab	-0.004665931
216	0x3b084f3e	0.0020799185
217	0xb9a4d19d	-0.00031436692
218	0x3a282815	0.0006414664
219	0x3aeb2582	0.0017940255
220	0xb9b1ead4	-0.0003393503
221	0xba857f68	-0.0010185065
222	0xba400ec9	-0.0007326422
223	0x3b3ff3b0	0.0029289536
224	0x3b194f92	0.0023393375
225	0xb9ea480f	-0.00044685646
226	0x37b8e892	2.2042808e-05
227	0x3b82391e	0.003974094
228	0x3b1a3a9e	0.0023533474
229	0x3ae1988d	0.0017211601
230	0x3c1eee4b	0.009700368
231	0x3b60e9a4	0.0034318948
232	0x3bb640a2	0.005561904
233	0x3b25f758	0.002532443
234	0xbb0d051b	-0.0021517936
235	0xbc2e6aee	-0.010645611
236	0x3b0394a7	0.0020077617
237	0x3b9dc56c	0.0048147943
238	0x3bbda319	0.005787265
239	0x3b7d7759	0.0038675873
240	0x3aec44cb	0.0018025873
241	0xbbb37c1a	-0.0054774405
242	0xbb40127f	-0.00293079
243	0xbbb9ad5d	-0.0056664185
244	0x3b37931f	0.0028011275
245	0x3c181e0a	0.009284506
246	0x3b5bf0a8	0.003356019
247	0x3b8dfd52	0.0043331767
248	0xbbb95c5a	-0.005656761
249	0x3b3e1ec0	0.0029010028
250	0xba4d1982	-0.00078239304
251	0xbab0cef5	-0.0013489412
252	0xba1b7854	-0.0005930711
253	0xba0ca000	-0.0005364418
254	0xb9f6601d	-0.00046992386
255	0x3af0a840	0.0018360689
