Classification/Methods/CNN/CNN.pth (torch, 2855 bytes, 2 tensors)

encConv1.weight f4 [16, 3, 3, 3]
0	0xbd892357	-0.06696194
1	0x3dadf85d	0.08494637
2	0x3e25cca9	0.16191353
3	0xbca1de62	-0.01975936
4	0xbcc7ad74	-0.024374701
5	0x3c851eb9	0.016250001
6	0xbd2c87a2	-0.042121537
7	0x3caf887f	0.021427391
8	0x3e244158	0.16040552
9	0x3e223a61	0.15842582
10	0xbd83e451	-0.06440032
11	0xbe229d72	-0.15880373
12	0x3e33fe62	0.17577508
13	0x3e40ffa8	0.18847525
14	0x3d8b73ff	0.06809234
15	0xbe432a88	-0.19059193
16	0xbd62099c	-0.055184945
17	0x3d55367f	0.052053925
18	0xbe1dd788	-0.1541425
19	0x3d81c057	0.06335514
20	0xbdc73c68	-0.097283185
21	0xbc5db195	-0.013531108
22	0x3d3f0627	0.046636727
23	0xbe390fe9	-0.18072475
24	0x3db1dc35	0.08684579
25	0x3e00e138	0.12585914
26	0x3dd0a560	0.10187793
27	0x3e14ed74	0.14543706
28	0x3d29f91f	0.041497346
29	0xbdc9a1fb	-0.098453484
30	0xbd47eff1	-0.04881281
31	0x3de09677	0.10966199
32	0xbe18d70b	-0.14925782
33	0x3e456344	0.19276148
34	0x3e0275b4	0.12740213
35	0x3cf4191e	0.029797133
36	0xbd9643cd	-0.07337151
37	0x3e158445	0.14601238
38	0x3deafb0b	0.11473664
39	0x3e0fb615	0.14034303
40	0xbe468e85	-0.19390304
41	0xbe11c496	-0.14235148
42	0x3e356a45	0.1771632
43	0x3e13cccd	0.14433594
44	0x3c9fe4e6	0.019518327
45	0x3c1b5308	0.009480245
46	0xbc92f6cd	-0.01793995
47	0xbd910509	-0.070810385
48	0xbdfd1436	-0.123573706
49	0xbd927d3c	-0.07152793
50	0xbdf0fe1d	-0.11767218
51	0x3da9db26	0.08293752
52	0xbdf3c84d	-0.11903439
53	0x3dc390e5	0.09549121
54	0xbd0be3dc	-0.03415285
55	0x3d9ec22f	0.07751881
56	0x3dc12dec	0.09432587
57	0xbda1f8b9	-0.07908768
58	0x3dddc141	0.10827876
59	0xbe1815c2	-0.1485205
60	0x3dbfc858	0.093643844
61	0xbdb29880	-0.08720493
62	0x3d22282c	0.039589092
63	0xbe00c183	-0.12573819
64	0x3d48fac5	0.049067277
65	0x3dbb3a5b	0.0914199
66	0x3ce8de28	0.028426245
67	0xbe15ae81	-0.14617349
68	0x3d30efdd	0.0431975
69	0x3def83b0	0.11695039
70	0x3c50098a	0.012697587
71	0x3d2a4408	0.041568786
72	0x3d222bc1	0.03959251
73	0xbe0ab756	-0.135465
74	0xbd395c12	-0.04525382
75	0xbe7bc0a1	-0.24585201
76	0x3dc5db0e	0.09660922
77	0xbe531e65	-0.20617063
78	0xbd74474b	-0.059638303
79	0xbdb2c378	-0.08728689
80	0x3ba7d544	0.005121859
81	0xbe59acbf	-0.21257304
82	0x36ae8f4d	5.2022865e-06
83	0x3d407116	0.046982847
84	0x3de7b6a1	0.113141306
85	0xbdc3fca3	-0.09569671
86	0x3d9a171b	0.07523938
87	0x3c06df9e	0.008232025
88	0xbdb09ab8	-0.0862326
89	0xbd6004a2	-0.05469192
90	0xbe954082	-0.29150778
91	0xbbf0fa11	-0.007354029
92	0xbc47a192	-0.012184517
93	0xbe93bb6b	-0.28853926
94	0x3d465051	0.04841644
95	0x3d2f9c1f	0.042873498
96	0xbda97a3e	-0.08275269
97	0xbe3b4d63	-0.1829124
98	0xbe5cdfed	-0.21569796
99	0xbe7a91ab	-0.2446963
100	0xbe627286	-0.22114
101	0xbead6672	-0.33867222
102	0xbe9824bc	-0.29715526
103	0x3b7e93d4	0.0038845437
104	0xbe6e212d	-0.23254843
105	0xbead26bd	-0.33818617
106	0x3bbc816f	0.0057527344
107	0xbbb073d5	-0.005384902
108	0xbdb106b3	-0.08643856
109	0xbe2c3481	-0.16816904
110	0x3e36fd10	0.17869973
111	0x3c280e4d	0.010257316
112	0x3defd3b2	0.117102996
113	0xbdabe40c	-0.08393106
114	0xbdd3c8f6	-0.10341065
115	0x3bfe5f3e	0.0077628186
116	0xbd613595	-0.05498274
117	0xb8a0b02e	-7.6622106e-05
118	0x3dd8f782	0.10594083
119	0xbdd52f9b	-0.10409471
120	0xbd8a3d29	-0.067499466
121	0x3da46db5	0.080287375
122	0xbe22a98e	-0.15884992
123	0xbb87e40e	-0.0041470593
124	0xbe0b386f	-0.13595746
125	0x3cc7c4e8	0.024385884
126	0xbdeec424	-0.116585046
127	0x3d66c765	0.0563425
128	0x3d65ddbc	0.056119666
129	0xbc68aa2f	-0.014200731
130	0x3e089ed3	0.13341837
131	0xbd7e0de5	-0.06202497
132	0xbdcc0e81	-0.09963704
133	0xbe0e947a	-0.13923827
134	0xbe04ebb1	-0.12980534
135	0x3e3c6d1b	0.18400995
136	0xbe349022	-0.17633107
137	0xbd49652d	-0.049168754
138	0xbe42b021	-0.190125
139	0xbdcf8674	-0.10133067
140	0xbcd47a42	-0.025937203
141	0x3dd46fec	0.1037291
142	0x3d5099ed	0.050928045
143	0xbd949514	-0.07254997
144	0xbc854239	-0.016266929
145	0x3da54d57	0.08071392
146	0x3e3c0e4b	0.18364827
147	0xbda252fc	-0.07925984
148	0x3e3598e6	0.17734107
149	0xbd4632a2	-0.04838813
150	0x3dbbff0b	0.09179505
151	0xbcb34c96	-0.021887105
152	0x3e16ae05	0.1471482
153	0x3dd92116	0.10602014
154	0xbba14bc9	-0.0049223644
155	0xbda9409e	-0.08264278
156	0xbcd88189	-0.026428955
157	0xbd8b565e	-0.068035826
158	0x3df46ef1	0.11935223
159	0xbe026e38	-0.12737358
160	0x3e01ef9d	0.12689061
161	0xbdd21e06	-0.10259633
162	0xbc8d52e4	-0.01725144
163	0xbe6e6f77	-0.23284708
164	0xbde711a9	-0.11282665
165	0x3d185823	0.03719343
166	0x3ddd1c0b	0.107963644
167	0xbb4b65cd	-0.003103602
168	0xbd58846e	-0.05286067
169	0xbe789e73	-0.24279194
170	0xbe06de62	-0.1317077
171	0xbdc097ff	-0.09403991
172	0xbe49e9bc	-0.19718069
173	0x3e1dedcb	0.15422742
174	0x3db4f382	0.08835508
175	0xbdc5cafb	-0.09657856
176	0xbe3655ff	-0.17806242
177	0xbdd34c12	-0.10317244
178	0xbddbaa07	-0.107257895
179	0xbde94334	-0.11389771
180	0x3e4370cc	0.19085997
181	0xbe2a0f9b	-0.16607516
182	0x3c0dd0af	0.008655711
183	0xbdf47d63	-0.11937978
184	0x3e5f874f	0.2182896
185	0x3d6794f2	0.05653853
186	0x3e28f3f8	0.16499317
187	0x3e5e4d53	0.21709184
188	0x3e397845	0.18112285
189	0xbd89edde	-0.06734823
190	0xbe060c92	-0.13090733
191	0xbd9886b0	-0.074475646
192	0x3d1c21c0	0.038118124
193	0xbe4acbe3	-0.19804339
194	0xbe3749f9	-0.17899312
195	0x3bef230a	0.007297878
196	0xbe560676	-0.20900902
197	0x3e0a819e	0.13526008
198	0x3cc864f2	0.024462197
199	0x3dc82e46	0.09774451
200	0xbe348da7	-0.17632161
201	0x3d322e81	0.04350138
202	0x3d62c544	0.05536391
203	0x3e0a2a6e	0.13492748
204	0xbe6389ea	-0.22220579
205	0x3dad6de0	0.084682226
206	0xbcad82d0	-0.02118054
207	0xbe47ac9d	-0.1949944
208	0xbde70572	-0.112803355
209	0x3d14c364	0.03631915
210	0xbe8125e7	-0.2522423
211	0x3dd071a6	0.10177927
212	0xbe358ec4	-0.17730242
213	0xbe76ec37	-0.24113546
214	0x3df30d95	0.11867825
215	0xbdbbfe0b	-0.09179314
216	0xbcf1f2a0	-0.029534638
217	0xbda18cfc	-0.07888219
218	0xbe150c0d	-0.14555378
219	0xbd0178c3	-0.031609308
220	0x3ce73252	0.028222237
221	0xbd9295af	-0.07157456
222	0x3da0bbec	0.07848343
223	0xbc6592a0	-0.014012009
224	0x3debf4f3	0.1152133
225	0xbdb83e2e	-0.08996235
226	0x3d5406ad	0.05176418
227	0xbe30fe8f	-0.17284606
228	0x3c89e687	0.016833557
229	0xbde09d32	-0.109674826
230	0xbdd71203	-0.10501482
231	0x3dabe48b	0.083932005
232	0x3e086dc2	0.1332312
233	0xbd4d8e2e	-0.05018442
234	0x3dd22dcd	0.10262642
235	0x3e3e5956	0.18588766
236	0x3e187cc2	0.14891341
237	0xbba7e35b	-0.0051235384
238	0x3c959d3c	0.018263452
239	0xbd8ca7c7	-0.068679385
240	0x3d6d43f1	0.057926122
241	0xbe0d7ede	-0.13817927
242	0xbe1ca7e3	-0.15298419
243	0xbe40a2ef	-0.18812154
244	0xbd2a226f	-0.041536745
245	0xbdd83964	-0.105578214
246	0xbe1b2354	-0.15150195
247	0xbe30b86a	-0.17257848
248	0xbdcaac20	-0.098961115
249	0xbd9b8788	-0.0759421
250	0x3cc566d8	0.024096891
251	0x3e1e4609	0.15456404
252	0xbcf83fd5	-0.030303875
253	0x3dc1e044	0.094666034
254	0x3e125a30	0.14292216
255	0xbe16dd72	-0.14732912

encConv1.bias f4 [16]
0	0xbe4bbe81	-0.1989689
1	0xbdbd9922	-0.092577234
2	0x3d89495b	0.067034446
3	0x3eb5ad52	0.35483795
4	0xbcf2b78e	-0.029628541
5	0xbdfa9a73	-0.1223649
6	0x3e5b27ce	0.21401903
7	0x3e42b662	0.19014886
8	0xbba85c19	-0.005137932
9	0xbdc62f90	-0.096770406
10	0xbe114824	-0.14187676
11	0xbdab65b8	-0.08369011
12	0x3c3fd3d3	0.011708218
13	0xbd78648c	-0.060642764
14	0xbe100780	-0.14065361
15	0xbe3171a6	-0.1732851
